…
        (projection): Conv1d(512, 21, kernel_size=(3,), stride=(1,), padding=(1,), bias=False, padding_mode=circular)
      )
    )
    (norm): my_Layernorm(
      (layernorm): LayerNorm((512,), eps=1e-05, elementwise_affine=True)
    )
    (projection): Linear(in_features=512, out_features=21, bias=True)
  )
)
====================================================================================================
Layer (type:depth-idx)                             Output Shape              Param #
====================================================================================================
Model                                              [32, 96, 21]              --
├─series_decomp: 1-1                               [32, 96, 21]              --
│    └─moving_avg: 2-1                             [32, 96, 21]              --
│    │    └─AvgPool1d: 3-1                         [32, 21, 96]              --
├─DataEmbedding_wo_pos: 1-2                        [32, 96, 512]             --
│    └─TokenEmbedding: 2-2                         [32, 96, 512]             --
│    │    └─Conv1d: 3-2                            [32, 512, 96]             32,256
│    └─TimeFeatureEmbedding: 2-3                   [32, 96, 512]             --
│    │    └─Linear: 3-3                            [32, 96, 512]             2,048
│    └─Dropout: 2-4                                [32, 96, 512]             --
├─Encoder: 1-3                                     [32, 96, 512]             --
│    └─ModuleList: 2-5                             --                        --
│    │    └─EncoderLayer: 3-4                      [32, 96, 512]             3,147,776
│    │    └─EncoderLayer: 3-5                      [32, 96, 512]             3,147,776
│    └─my_Layernorm: 2-6                           [32, 96, 512]             --
│    │    └─LayerNorm: 3-6                         [32, 96, 512]             1,024
├─DataEmbedding_wo_pos: 1-4                        [32, 144, 512]            --
│    └─TokenEmbedding: 2-7                         [32, 144, 512]            --
│    │    └─Conv1d: 3-7                            [32, 512, 144]            32,256
│    └─TimeFeatureEmbedding: 2-8                   [32, 144, 512]            --
│    │    └─Linear: 3-8                            [32, 144, 512]            2,048
│    └─Dropout: 2-9                                [32, 144, 512]            --
├─Decoder: 1-5                                     [32, 144, 21]             --
│    └─ModuleList: 2-10                            --                        --
│    │    └─DecoderLayer: 3-9                      [32, 144, 512]            4,230,656
│    └─my_Layernorm: 2-11                          [32, 144, 512]            --
│    │    └─LayerNorm: 3-10                        [32, 144, 512]            1,024
│    └─Linear: 2-12                                [32, 144, 21]             10,773
====================================================================================================
Total params: 10,607,637
Trainable params: 10,607,637
Non-trainable params: 0
Total mult-adds (G): 23.08
====================================================================================================
Input size (MB): 0.77
Forward/backward pass size (MB): 555.20
Params size (MB): 42.43
Estimated Total Size (MB): 598.40
…
