…
    (series_conv): Conv1d(96, 1, kernel_size=(3,), stride=(1,), padding=(1,), bias=False, padding_mode=circular)
    (backbone): Sequential(
      (0): Linear(in_features=42, out_features=256, bias=True)
      (1): ReLU()
      (2): Linear(in_features=256, out_features=256, bias=True)
      (3): ReLU()
      (4): Linear(in_features=256, out_features=96, bias=False)
    )
  )
)
===============================================================================================
Layer (type:depth-idx)                        Output Shape              Param #
===============================================================================================
Model                                         [32, 96, 21]              --
├─Projector: 1-1                              [32, 1]                   --
│    └─Conv1d: 2-1                            [32, 1, 21]               288
│    └─Sequential: 2-2                        [32, 1]                   --
│    │    └─Linear: 3-1                       [32, 256]                 11,008
│    │    └─ReLU: 3-2                         [32, 256]                 --
│    │    └─Linear: 3-3                       [32, 256]                 65,792
│    │    └─ReLU: 3-4                         [32, 256]                 --
│    │    └─Linear: 3-5                       [32, 1]                   256
├─Projector: 1-2                              [32, 96]                  --
│    └─Conv1d: 2-3                            [32, 1, 21]               288
│    └─Sequential: 2-4                        [32, 96]                  --
│    │    └─Linear: 3-6                       [32, 256]                 11,008
│    │    └─ReLU: 3-7                         [32, 256]                 --
│    │    └─Linear: 3-8                       [32, 256]                 65,792
│    │    └─ReLU: 3-9                         [32, 256]                 --
│    │    └─Linear: 3-10                      [32, 96]                  24,576
├─DataEmbedding: 1-3                          [32, 96, 512]             --
│    └─TokenEmbedding: 2-5                    [32, 96, 512]             --
│    │    └─Conv1d: 3-11                      [32, 512, 96]             32,256
│    └─TimeFeatureEmbedding: 2-6              [32, 96, 512]             --
│    │    └─Linear: 3-12                      [32, 96, 512]             2,048
│    └─PositionalEmbedding: 2-7               [1, 96, 512]              --
│    └─Dropout: 2-8                           [32, 96, 512]             --
├─Encoder: 1-4                                [32, 96, 512]             --
│    └─ModuleList: 2-9                        --                        --
│    │    └─EncoderLayer: 3-13                [32, 96, 512]             3,152,384
│    │    └─EncoderLayer: 3-14                [32, 96, 512]             3,152,384
│    └─LayerNorm: 2-10                        [32, 96, 512]             1,024
├─DataEmbedding: 1-5                          [32, 144, 512]            --
│    └─TokenEmbedding: 2-11                   [32, 144, 512]            --
│    │    └─Conv1d: 3-15                      [32, 512, 144]            32,256
│    └─TimeFeatureEmbedding: 2-12             [32, 144, 512]            --
│    │    └─Linear: 3-16                      [32, 144, 512]            2,048
│    └─PositionalEmbedding: 2-13              [1, 144, 512]             --
│    └─Dropout: 2-14                          [32, 144, 512]            --
├─Decoder: 1-6                                [32, 144, 21]             --
│    └─ModuleList: 2-15                       --                        --
│    │    └─DecoderLayer: 3-17                [32, 144, 512]            4,204,032
│    └─LayerNorm: 2-16                        [32, 144, 512]            1,024
│    └─Linear: 2-17                           [32, 144, 21]             10,773
===============================================================================================
Total params: 10,769,237
Trainable params: 10,769,237
Non-trainable params: 0
Total mult-adds (G): 22.97
===============================================================================================
Input size (MB): 0.77
Forward/backward pass size (MB): 661.67
Params size (MB): 43.08
Estimated Total Size (MB): 705.52
…
