…
        (dropout): Dropout(p=0.1, inplace=False)
      )
    )
    (norm): LayerNorm((512,), eps=1e-05, elementwise_affine=True)
  )
  (head): FlattenHead(
    (flatten): Flatten(start_dim=-2, end_dim=-1)
    (linear): Linear(in_features=6144, out_features=96, bias=True)
    (dropout): Dropout(p=0.1, inplace=False)
  )
)
===============================================================================================
Layer (type:depth-idx)                        Output Shape              Param #
===============================================================================================
Model                                         [32, 96, 21]              --
├─PatchEmbedding: 1-1                         [672, 12, 512]            --
│    └─ReplicationPad1d: 2-1                  [32, 21, 104]             --
│    └─TokenEmbedding: 2-2                    [672, 12, 512]            --
│    │    └─Conv1d: 3-1                       [672, 512, 12]            24,576
│    └─PositionalEmbedding: 2-3               [1, 12, 512]              --
│    └─Dropout: 2-4                           [672, 12, 512]            --
├─Encoder: 1-2                                [672, 12, 512]            --
│    └─ModuleList: 2-5                        --                        --
│    │    └─EncoderLayer: 3-2                 [672, 12, 512]            3,152,384
│    │    └─EncoderLayer: 3-3                 [672, 12, 512]            3,152,384
│    └─LayerNorm: 2-6                         [672, 12, 512]            1,024
├─FlattenHead: 1-3                            [32, 21, 96]              --
│    └─Flatten: 2-7                           [32, 21, 6144]            --
│    └─Linear: 2-8                            [32, 21, 96]              589,920
│    └─Dropout: 2-9                           [32, 21, 96]              --
===============================================================================================
Total params: 6,920,288
Trainable params: 6,920,288
Non-trainable params: 0
Total mult-adds (G): 35.50
===============================================================================================
Input size (MB): 0.77
Forward/backward pass size (MB): 793.24
Params size (MB): 27.68
Estimated Total Size (MB): 821.69
…
