…
        (norm2): LayerNorm((512,), eps=1e-05, elementwise_affine=True)
        (norm3): LayerNorm((512,), eps=1e-05, elementwise_affine=True)
        (dropout): Dropout(p=0.1, inplace=False)
      )
    )
    (norm): LayerNorm((512,), eps=1e-05, elementwise_affine=True)
    (projection): Linear(in_features=512, out_features=21, bias=True)
  )
)
===============================================================================================
Layer (type:depth-idx)                        Output Shape              Param #
===============================================================================================
Model                                         [32, 96, 21]              --
├─DataEmbedding: 1-1                          [32, 96, 512]             --
│    └─TokenEmbedding: 2-1                    [32, 96, 512]             --
│    │    └─Conv1d: 3-1                       [32, 512, 96]             32,256
│    └─TimeFeatureEmbedding: 2-2              [32, 96, 512]             --
│    │    └─Linear: 3-2                       [32, 96, 512]             2,048
│    └─PositionalEmbedding: 2-3               [1, 96, 512]              --
│    └─Dropout: 2-4                           [32, 96, 512]             --
├─Encoder: 1-2                                [32, 96, 512]             --
│    └─ModuleList: 2-5                        --                        --
│    │    └─EncoderLayer: 3-3                 [32, 96, 512]             3,152,384
│    │    └─EncoderLayer: 3-4                 [32, 96, 512]             3,152,384
│    └─LayerNorm: 2-6                         [32, 96, 512]             1,024
├─DataEmbedding: 1-3                          [32, 144, 512]            --
│    └─TokenEmbedding: 2-7                    [32, 144, 512]            --
│    │    └─Conv1d: 3-5                       [32, 512, 144]            32,256
│    └─TimeFeatureEmbedding: 2-8              [32, 144, 512]            --
│    │    └─Linear: 3-6                       [32, 144, 512]            2,048
│    └─PositionalEmbedding: 2-9               [1, 144, 512]             --
│    └─Dropout: 2-10                          [32, 144, 512]            --
├─Decoder: 1-4                                [32, 144, 21]             --
│    └─ModuleList: 2-11                       --                        --
│    │    └─DecoderLayer: 3-7                 [32, 144, 512]            4,204,032
│    └─LayerNorm: 2-12                        [32, 144, 512]            1,024
│    └─Linear: 2-13                           [32, 144, 21]             10,773
===============================================================================================
Total params: 10,590,229
Trainable params: 10,590,229
Non-trainable params: 0
Total mult-adds (G): 22.96
===============================================================================================
Input size (MB): 0.77
Forward/backward pass size (MB): 661.38
Params size (MB): 42.36
Estimated Total Size (MB): 704.51
…
